code/model/model.tflite (tflite, 43576 bytes, 6 tensors)

arith.constant f4 [5, 64]
000000 3d 13 0f be 04 fa 70 3e 04 21 b8 3d 98 a4 3b 3d
       -0.13972183 0.23532873 0.08990672 0.045811266
000010 2e 98 81 be da 65 26 3e e8 01 dc 3d 60 9c 77 3d
       -0.25311416 0.16249791 0.10742551 0.060451865
000020 28 60 0c be 44 ea 8c 3e 84 39 95 3e dc 0d a1 bd
       -0.13708556 0.2752248 0.29145443 -0.078639716
000030 2a 7f 68 3e c4 4e 5a bd f0 8c ee bc ea 00 35 3e
       0.22704759 -0.053297773 -0.029119939 0.1767613
000040 10 82 a9 3c 08 a7 b9 bd 50 ab d9 bc 5a c1 db 3d
       0.020691901 -0.09065062 -0.026570946 0.10730238
000050 23 da 16 3e b4 15 e6 3d 96 09 10 be af 31 8f be
       0.1473165 0.11234608 -0.14066157 -0.27967593
000060 bc 9a 26 3e 7c 6b 70 bc 88 1f 9e 3c 80 a8 58 bb
       0.16269964 -0.014674064 0.019302145 -0.0033059418
000070 b1 87 36 be ff f3 4b 3d b8 59 04 bd e4 f8 19 3e
       -0.178252 0.04979324 -0.032312125 0.1503635
000080 bf 2f e7 3d 04 69 7e 3e 40 e5 b1 3b 12 d0 2c 3e
       0.11288404 0.24844748 0.00542894 0.16876248
000090 8d e4 1c be 29 47 81 bd 18 ac a3 bd f3 20 87 be
       -0.1532156 -0.06312401 -0.07991809 -0.26392326
0000a0 ec 37 88 3e 80 ad 8e 3c a0 13 89 3d b0 8f df 3d
       0.26605165 0.017416716 0.06693196 0.10916078
0000b0 28 e1 2c be b2 3d 44 be 7d 45 5c 3e 87 c4 77 3c
       -0.16882765 -0.1916416 0.21510883 0.015122539
0000c0 b3 c0 79 bc 65 dc 8d bd 42 7f 93 bd dc 0c 4d 3e
       -0.015243697 -0.069268025 -0.07202007 0.20024437
0000d0 5d 52 93 3e 01 e6 1d be f0 20 85 3e 35 f7 92 bd
       0.28773776 -0.15419771 0.26001692 -0.07176057
0000e0 35 43 9e 3d 64 ca d3 3d 99 31 44 3e d0 a3 85 be
       0.077276625 0.10341337 0.19159545 -0.26101542
0000f0 ac bc 2e 3e 2d 06 e6 bd 21 2e 47 be 4a 9a 4e 3e
       0.1706416 -0.11231647 -0.1945119 0.20176044
000100 5f f4 7c be f2 d8 0c 3e 30 af 54 3e 7c 01 b2 3d
       -0.24702595 0.13754633 0.20769954 0.08691689
000110 94 f1 b3 3d 53 0e e4 bc 80 ba e0 3c 96 12 7d 3e
       0.08786312 -0.027838862 0.02743268 0.24714121
000120 20 89 0b 3d cc ed 92 be a8 b6 66 be c4 ed 89 3d
       0.03406632 -0.2869705 -0.22530615 0.06734803
000130 ab f6 13 3e 28 68 fa 3d 22 2a fb 3c 36 58 88 3e
       0.14449565 0.122268975 0.030659739 0.266298
000140 b6 95 37 be 00 bc 44 3e d0 75 2d 3e 83 9a 3e 3e
       -0.17928204 0.19212341 0.16939473 0.18613629
000150 69 db 3a bd bc 52 54 3e 42 5b 87 be 98 5e 9d 3d
       -0.045619402 0.20734686 -0.26436812 0.07684058
000160 9a dc 3a 3e cc 91 af 3b 62 a5 63 be 22 51 34 be
       0.18248215 0.0053579565 -0.22231057 -0.17609075
000170 00 76 cd bd 64 a6 f3 3d 60 b6 b9 bc 50 95 f0 bc
       -0.10032272 0.11896971 -0.022669971 -0.029368073
000180 37 cc 8f be e0 17 1a be 46 90 8d be 80 1b 56 bc
       -0.2808549 -0.1504817 -0.27649134 -0.01306808
000190 40 a6 3c 3e a1 ae 90 3e 84 05 5d bd 32 d5 21 3e
       0.18422794 0.2825823 -0.05396034 0.15803984
0001a0 c4 36 8d be 20 03 88 be 28 81 63 3e ea e8 94 be
       -0.27580845 -0.26564884 0.22217238 -0.2908395
0001b0 76 1f 8d 3e b9 76 5a be d4 b7 03 3e 24 6a 55 3e
       0.27563065 -0.21334352 0.12863094 0.2084127
0001c0 82 0e 1d be f6 48 80 3e a0 27 58 bd 6a e5 84 3e
       -0.15337566 0.25055665 -0.052772164 0.2595628
0001d0 d8 21 38 be ba 4b 04 3e 90 91 aa 3d 99 3e 40 be
       -0.1798166 0.12919512 0.08328545 -0.18773879
0001e0 a0 a8 6d be 07 71 96 be c6 a5 92 3d 50 8b 76 3e
       -0.23208857 -0.29383108 0.07160525 0.24076581
0001f0 9c 95 a2 3d 89 66 2e 3e 09 4c f9 bd 84 83 8c be
       0.07938692 0.17031302 -0.12172706 -0.27444088
000200 d6 20 8e 3e f8 0f 57 3e ee 42 73 be 68 3a f0 3d
       0.27759427 0.21002185 -0.23756 0.1172989
000210 c0 64 a1 3c 3e c6 b7 bd 20 30 94 be 68 0a 03 bd
       0.019701362 -0.089733586 -0.28942966 -0.031992346
000220 70 28 bc bd 62 9f e1 3d 62 89 2e 3e 10 33 49 3e
       -0.091874 0.11016728 0.17044595 0.19648385
000230 71 0a bd 3b 80 8a fa 3b a0 5e 0e be 40 27 35 bc
       0.005769067 0.007645905 -0.13903284 -0.011056721
000240 11 c3 09 be 70 bb eb bd d9 04 1b be 66 bd f2 bc
       -0.13453318 -0.1151036 -0.15138568 -0.029631328
000250 e9 14 78 3e 37 18 89 be 62 6e 05 3e 8b 88 06 be
       0.24226727 -0.26776287 0.13030389 -0.13138025
000260 32 c8 bc bd 20 68 8f be cd d9 48 3e 0c 36 b7 3d
       -0.09217872 -0.2800913 0.19614334 0.089458555
000270 04 6b e9 bd 29 c7 71 3d c4 39 96 bd 20 8e 02 3c
       -0.11397365 0.059027825 -0.07335237 0.007968456
000280 44 42 26 bd ee 63 83 bd a6 6a 90 3e f2 7b 46 3e
       -0.04059054 -0.064155445 0.28206366 0.19383219
000290 a8 7d 7e 3d c4 7e 84 be f0 38 f5 bc 54 ed e8 3d
       0.062131554 -0.25877964 -0.029934376 0.11373392
0002a0 5e fd 91 be a0 5d bc 3c f2 76 3d be f2 83 4a 3e
       -0.28513616 0.022993863 -0.18502405 0.19776896
0002b0 af 9a 11 3d ca b8 32 3e 1f 33 91 3e e7 a9 80 bd
       0.03554791 0.17453304 0.28359315 -0.06282406
0002c0 69 7e 93 3d 92 81 98 bd 14 fb f8 3d f0 26 90 3c
       0.07201845 -0.074465886 0.12157264 0.017596692
0002d0 cb e7 f6 3d 40 b3 d7 3c ac 77 ee 3d cd a0 8e be
       0.1205593 0.02633059 0.11643919 -0.27857056
0002e0 d8 33 55 3e de ab dc bd fb 81 c0 3d f0 ff 5f be
       0.20820558 -0.107749686 0.09399792 -0.21874976
0002f0 00 0c 83 3a f5 46 d0 bd be 11 aa 3d 3e bf 1e be
       0.0009998083 -0.10169784 0.08304165 -0.1550264
000300 1d 4b 81 bd 18 40 51 3e fa 37 93 3e 60 64 56 3d
       -0.06313155 0.20434606 0.28753644 0.05234182
000310 0c 3d 59 bd be 77 84 3e a4 6e 60 3e ea dc 9d 3d
       -0.053036734 0.25872606 0.21917206 0.07708152
000320 2a da e6 bd a8 48 92 3e 74 ae 60 bc 80 3c e0 3b
       -0.1127208 0.28571057 -0.013713468 0.0068431497
000330 d5 e8 82 be 52 81 69 be ea 08 5d be fc 8e e0 3d
       -0.25568262 -0.22803238 -0.21585432 0.10964772
000340 7a 4c 10 be 47 f2 88 be 00 b3 58 be 76 98 cc 3d
       -0.14091673 -0.26747343 -0.21162033 0.09990017
000350 ee ba 6f 3e 6c 0d 16 3e 99 77 82 be b0 53 a4 bc
       0.23411152 0.14653558 -0.2548187 -0.020059437
000360 db 3a 57 be a9 fc 46 3e 3f cc 97 ba 7e 8d 82 3e
       -0.21018545 0.1943232 -0.0011581256 0.25498575
000370 dc 6f 88 bd f0 df 31 3e de 6e 87 bd 38 9b f6 3d
       -0.066619605 0.17370582 -0.06612943 0.120413244
000380 4f fe 53 bd ec 25 7c 3e 54 18 50 be 64 a2 37 3e
       -0.0517562 0.24623841 -0.2032178 0.17933041
000390 b6 ee 29 3e 80 70 5b 3e a0 3d 77 bc a2 52 2c 3e
       0.16594967 0.21429634 -0.015090376 0.16828397
0003a0 5b 91 0a be b0 a6 c4 bd 6c 1b b2 3d f0 57 c1 3d
       -0.13532011 -0.096021056 0.086966366 0.09440601
0003b0 3b 10 ea 3d 40 60 89 be 0b d4 f3 bd ef 90 90 3d
       0.11428877 -0.26831245 -0.11905678 0.07058894
0003c0 e5 ee b8 bd 87 f1 93 be e8 12 7c 3d 94 d3 17 be
       -0.090299405 -0.28895208 0.061541468 -0.14826804
0003d0 cf f6 94 bd 08 79 5e be a6 15 81 be 47 57 07 3e
       -0.072736375 -0.21725857 -0.2521183 0.13216887
0003e0 15 76 4f be 68 69 dd bd ec a5 5e be 40 82 62 3c
       -0.20259888 -0.1081112 -0.21742982 0.013824999
0003f0 8c 8d 71 3e 55 01 84 be 1f d2 4c be 90 d6 0e bd
       0.23589152 -0.25782266 -0.2000203 -0.03487259

arith.constant1 f4 [64, 128]
000000 8a 1d 90 3d 72 8e 08 3c 43 50 ad 3d b2 24 f6 bd
       0.07036884 0.008334743 0.08462574 -0.12018718
000010 b2 00 75 3d b2 b5 08 be 9b 8c ea bc d9 ac 33 be
       0.059815116 -0.13350561 -0.028631499 -0.17546405
000020 ba 58 d0 bd 10 b9 36 bd 30 5a 61 3d 6c 96 c0 bd
       -0.10173173 -0.044610083 0.05501765 -0.09403691
000030 4a fd 11 be 82 a0 7c 3c 79 07 db bd 38 8b 09 3e
       -0.14256778 0.015419127 -0.10694785 0.13432014
000040 e7 e0 57 bd 23 79 1a 3e 49 bc 87 bc 98 4c 22 3e
       -0.052704718 0.15085272 -0.016569274 0.1584953
000050 6c 87 d5 3d 76 21 32 be 90 21 4f bc 23 94 a2 bc
       0.1042622 -0.17395577 -0.012642279 -0.019846028
000060 17 09 23 3e 50 f7 f6 bc bb 15 2f 3e 5e 15 80 bd
       0.15921436 -0.030147225 0.17098133 -0.062540755
000070 30 69 06 3d f4 48 59 bd 40 eb 10 be 74 e5 2f 3d
       0.03281516 -0.05304809 -0.14152241 0.042943433
000080 62 76 c7 3d ce 70 87 bd 90 fd 5a bc 67 2e 02 be
       0.097393766 -0.06613313 -0.013366118 -0.12713014
000090 9e 67 9a 3d 87 44 07 be 90 a1 80 3d 68 0c e4 3d
       0.07539295 -0.13209735 0.062808156 0.11135179
0000a0 ae 77 09 bd d9 71 53 bc 0c 56 f0 bd b8 78 a6 3c
       -0.0335614 -0.012905561 -0.11735162 0.020321235
0000b0 62 2f 18 3e 45 6b f2 bd 3c b8 be bd b8 30 de 3d
       0.14861825 -0.11836866 -0.09312484 0.10849136
0000c0 7c df 1e 3e 00 6b 5a 3a 6c 31 07 be 66 15 55 bd
       0.1551494 0.0008331984 -0.13202447 -0.05202236
0000d0 48 c5 03 be 52 bd cb 3d 36 a3 ce 3d 9e c0 99 3d
       -0.12868226 0.09948219 0.10089724 0.07507442
0000e0 a9 e1 36 bd 2e 4a f9 3d 10 69 df 3d 96 81 05 be
       -0.0446488 0.12172352 0.10908711 -0.13037714
0000f0 3c 0d bd bc 3a 92 d0 bd 24 10 23 3d 2f d0 bb 3d
       -0.0230776 -0.101841405 0.039810315 0.09170567
000100 8d 4d 2c bd 87 d6 a4 3c 80 24 eb 3d d7 5d 7f 3d
       -0.042066146 0.020121826 0.11481571 0.062345352
000110 0d fb 14 3e 20 cf 8c bd 3d ea 16 be 0e 4c f5 3d
       0.14548893 -0.068754435 -0.14737792 0.11977397
000120 d9 62 2f 3d 40 b3 90 ba 9e f5 08 3d 80 c9 c1 bb
       0.042818878 -0.0011039749 0.033437364 -0.0059139132
000130 f5 2e 93 bd cd 35 a9 bd 20 f5 3c 3d a2 4b b1 bd
       -0.07186691 -0.08262215 0.046132207 -0.08657004
000140 a5 77 0d be 16 92 ab 3d 31 ac 34 3e 60 48 8e 3d
       -0.13815172 0.08377473 0.17643811 0.06947398
000150 7a 1e b1 3d 2e 76 08 be 7d db b9 3d 9c da 24 be
       0.08648391 -0.13326332 0.09075067 -0.16099018
000160 db 31 21 be 1b 85 9f bd a5 1d 30 3e a8 b9 20 bc
       -0.15741675 -0.0778906 0.17198808 -0.009809889
000170 15 cf 17 3e 07 70 17 3e 0e 4f 1c bd 57 68 5e 3d
       0.1482509 0.14788829 -0.03816133 0.054298725
000180 7d d6 06 3e 72 29 cd 3d 54 9c bb bd 58 d2 10 be
       0.13167758 0.10017671 -0.091606766 -0.1414274
000190 26 69 2f 3e cf 6c 49 3d 6d 5a f3 3d 43 40 9e 3d
       0.17129955 0.049176034 0.11882482 0.07727101
0001a0 f2 75 0f be 0f a9 19 3e d4 57 e6 bd de 49 e8 3d
       -0.14009836 0.15005897 -0.11247221 0.11342214
0001b0 47 8a 55 bd 88 11 fb bd 36 5f 1f be d0 74 77 bd
       -0.052133825 -0.12259203 -0.15563664 -0.060414135
0001c0 d8 4c 83 3c d7 c7 34 be d4 16 1c bd 50 2a 15 be
       0.016027853 -0.17654358 -0.038107708 -0.14566922
0001d0 66 68 91 bc 5c 73 93 bc 64 c9 fd bd 0d 7a 7d bc
       -0.017749976 -0.017999344 -0.12391928 -0.015470994
0001e0 66 fa cf bd 80 f2 0e bc 17 e6 32 3e c8 03 5e bd
       -0.101551816 -0.008724809 0.17470585 -0.054202825
0001f0 8c 80 e9 bc b7 18 d1 bc e0 3b da bc e5 32 d8 bb
       -0.028503679 -0.02552448 -0.026639879 -0.006597864
000200 78 36 21 bd 4a fc df 3d 67 79 e3 bd c8 27 74 3d
       -0.039358586 0.10936792 -0.1110714 0.05960825
000210 5f ea 1a be ae 28 d6 3d 63 95 2f 3e 9a 71 8b bd
       -0.15128468 0.10456978 0.1714683 -0.06808777
000220 c3 59 13 3e 19 1a 05 3e 50 4f c1 3c 2f 1f 18 3e
       0.1438971 0.12998237 0.02359739 0.14855646
000230 0d a2 24 3e 57 dd 08 3e 3c f8 3f 3d d6 f0 20 be
       0.16077442 0.13365684 0.046867594 -0.15716872
000240 00 36 93 b9 d2 5c f7 3d ef 1e 05 3e ae 4a ab 3d
       -0.00028078258 0.12078251 0.13000081 0.083638534
000250 20 2f ab bc 82 42 90 bd a4 3d 51 3d 80 87 9a bb
       -0.020896494 -0.07043935 0.051084176 -0.00471586
000260 f0 dc ea 3c fb 16 df bd 3e c5 13 be 18 13 cb bc
       0.028669804 -0.10893055 -0.1443071 -0.024789378
000270 05 73 ac bd 51 cd 11 3e b0 18 44 bc 54 f3 2b be
       -0.08420376 0.14238478 -0.011968777 -0.16792041
000280 64 4d 16 be 05 ab 20 be 51 67 28 be 3e 3d dd bd
       -0.1467796 -0.15690239 -0.16445662 -0.10802697
000290 d4 e6 97 bd 32 18 fe 3d 80 6c aa ba 4c 3a 1b be
       -0.07417074 0.12406959 -0.0013002306 -0.15158957
0002a0 0a 0d 67 bd 58 5d 4a bd 68 29 64 bd 98 7e 2e 3d
       -0.05640892 -0.049405426 -0.05570355 0.042601198
0002b0 9f 7c 08 be 72 5c e5 3d 80 b8 33 3b 39 6f 0e 3e
       -0.13328789 0.11199273 0.0027423203 0.13909616
0002c0 69 5f be bd 04 8b 28 be d7 da d4 bd e0 d2 53 3d
       -0.09295542 -0.1645928 -0.10393303 0.051714778
0002d0 d3 55 2f 3e 67 38 03 3e ff 1a c3 bd 72 9c c6 bd
       0.17122583 0.12814485 -0.095266335 -0.09697808
0002e0 a0 6d ee 3c 19 0c 02 3e 12 46 df 3d 81 68 19 3e
       0.029105008 0.12699927 0.10902037 0.14981271
0002f0 90 c2 5b 3d f7 e9 33 3e 75 92 d7 bd 43 ce 25 3e
       0.053652346 0.1756972 -0.10525981 0.16191964
000300 35 9f c2 bd 88 32 a9 3c 2a 7b e9 3d 82 ea 06 be
       -0.095030226 0.020653978 0.11400445 -0.13175395
000310 30 44 ca bc 86 22 e6 3d 40 e1 19 be 75 0f 2e 3e
       -0.024690717 0.112370536 -0.15027332 0.16998084
000320 3a 78 98 3d 64 c2 ef bd 11 04 20 be ca 66 76 bd
       0.074448064 -0.11706999 -0.15626551 -0.06015662
000330 fd 3e 0f be b8 87 69 3d f0 84 e7 bd 28 7b 9a 3c
       -0.13988872 0.057014197 -0.11304653 0.018857554
000340 1f 4a 10 3e 30 16 51 bc 8f 9b 31 3e b8 c4 89 bd
       0.14090775 -0.012761638 0.17344497 -0.06726974
000350 dc 77 28 bd fe 1e 11 be a0 2f 65 3c 6d 10 ab bd
       -0.04112993 -0.14171979 0.0139884055 -0.08352742
000360 e2 78 b7 3d 69 97 82 bd b6 4c 8d bd 82 1f c3 3d
       0.089586034 -0.063765354 -0.06899397 0.09527494
000370 10 2f 3b 3c 12 e8 85 3d a3 66 d7 bd 1a 2b af 3d
       0.011424795 0.065384045 -0.10517623 0.08553143
000380 5c 6b 2a be d5 2b 84 bd 62 13 86 3d 49 34 b0 bd
       -0.16642517 -0.06453673 0.06546666 -0.086037226
000390 70 85 85 3c a0 b2 32 3c 18 59 bc 3c 84 58 32 be
       0.01629898 0.010906845 0.022991702 -0.17416579
0003a0 e6 36 24 be 28 1b 70 3d 76 a4 06 be 21 2f 18 be
       -0.16036567 0.05861965 -0.13148674 -0.14861728
0003b0 ac c9 26 3d de da 0a be b2 74 a8 3d ef 1e 31 3e
       0.040719673 -0.13560054 0.08225383 0.17296956
0003c0 0c fb d6 bd 4d 0f 17 3e be 7e 25 be 94 9b 1f be
       -0.10497102 0.1475193 -0.1616163 -0.15586692
0003d0 e8 1f e5 3c 77 22 cb bd 7e a7 b1 3d 17 1c ac bd
       0.027969316 -0.09918683 0.08674525 -0.08403795
0003e0 00 06 9b 3c 49 16 2e 3e aa 95 82 bd 89 8f 2a be
       0.01892376 0.17000689 -0.063762024 -0.16656317
0003f0 d0 42 28 bc 44 61 0e be c4 0a 86 bd 02 1e f0 bd
       -0.010269836 -0.13904291 -0.06545022 -0.117244735

arith.constant2 f4 [5]
000000 3b c8 ad ba 87 84 fa bb fb d5 00 3b 49 2d be 39
       -0.0013258526 -0.007645193 0.0019658792 0.00036273364
000010 45 10 ac 3b
       0.005250963

sequential_1/dense_1_2/Add/ReadVariableOp f4 [64]
000000 27 3f 79 3a 00 00 00 00 00 00 00 00 00 00 00 00
       0.00095080066 0.0 0.0 0.0
000010 00 00 00 00 71 87 15 bb 00 00 00 00 ac 2b 80 bb
       0.0 -0.0022816325 0.0 -0.003911456
000020 00 00 00 00 a3 f2 93 3b 61 04 e8 39 00 00 00 00
       0.0 0.0045150085 0.0004425375 0.0
000030 c8 30 31 ba 00 00 00 00 3f 11 c9 3b 00 00 00 00
       -0.0006759283 0.0 0.006136089 0.0
000040 00 00 00 00 00 00 00 00 00 00 00 00 7a 83 e0 ba
       0.0 0.0 0.0 -0.0017129027
000050 25 1c 41 bc 00 00 00 00 5c 18 f0 3b 00 00 00 00
       -0.011786495 0.0 0.0073271226 0.0
000060 00 00 00 00 a0 b6 f2 39 ac ab 60 3b ad 91 c2 3a
       0.0 0.00046293903 0.0034282012 0.001484444
000070 00 00 00 00 7a 99 c7 b9 00 00 00 00 00 00 00 00
       0.0 -0.00038070587 0.0 0.0
000080 56 0d d4 ba 00 00 00 00 00 00 00 00 00 00 00 00
       -0.0016178291 0.0 0.0 0.0
000090 cf 30 9f b9 da dd 99 39 00 00 00 00 00 00 00 00
       -0.00030363208 0.00029347726 0.0 0.0
0000a0 00 00 00 00 00 00 00 00 00 00 00 00 00 00 00 00
       0.0 0.0 0.0 0.0
0000b0 30 07 b3 ba 00 00 00 00 e7 7d e0 bb b6 32 9a bb
       -0.0013658758 0.0 -0.006850946 -0.0047057522
0000c0 39 5d 8a 3b 68 dd c1 bb 00 00 00 00 00 00 00 00
       0.004222539 -0.0059162863 0.0 0.0
0000d0 b3 a0 0a bb 00 00 00 00 00 00 00 00 09 6d 4b bb
       -0.0021152913 0.0 0.0 -0.0031040332
0000e0 bb f4 1d bb 00 00 00 00 fa 06 f5 ba 00 00 00 00
       -0.002410217 0.0 -0.0018694096 0.0
0000f0 00 00 00 00 e1 1d 21 bb 54 d9 72 3b 00 00 00 00
       0.0 -0.002458446 0.0037055807 0.0

sequential_1/dense_1/Add/ReadVariableOp f4 [128]
000000 00 00 00 00 3f df 9c bb 9f b0 b0 bb ef bf c3 3a
       0.0 -0.004787355 -0.0053921486 0.001493452
000010 3b 9a e9 3b 76 fc 36 bb f5 44 4b 3b 62 35 62 3c
       0.0071289814 -0.0027921475 0.0031016443 0.013806673
000020 8f cc 89 bb 00 00 00 00 00 00 00 00 fb 6f 3c ba
       -0.0042052935 0.0 0.0 -0.0007188317
000030 00 00 00 00 9b f5 1a b9 43 1a 56 bb f2 46 ba 39
       0.0 -0.0001477808 -0.0032669462 0.00035529543
000040 b1 c2 04 bb 00 00 00 00 56 00 df bb b7 ed fd 3b
       -0.0020257647 0.0 -0.00680546 0.007749285
000050 71 75 69 bb 1a 21 5b bb 00 00 00 00 f8 9e 83 ba
       -0.003562298 -0.0033436478 0.0 -0.0010041883
000060 00 00 00 00 00 00 00 00 0b 76 d1 bb a6 fe ea 39
       0.0 0.0 -0.0063922456 0.00044821686
000070 00 00 00 00 00 00 00 00 00 00 00 00 16 db 24 b8
       0.0 0.0 0.0 -3.9304687e-05
000080 00 00 00 00 00 00 00 00 00 00 00 00 32 37 69 bc
       0.0 0.0 0.0 -0.014234351
000090 00 00 00 00 53 0e 70 bc 00 00 00 00 8b 54 92 3b
       0.0 -0.014651853 0.0 0.0044656447
0000a0 db 2a 6a bc 0b da ef bb 00 00 00 00 00 00 00 00
       -0.014292444 -0.007319694 0.0 0.0
0000b0 54 9f 32 bb 00 00 00 00 22 7f 62 bb 7e 07 8c b9
       -0.0027255611 0.0 -0.003456064 -0.00026708463
0000c0 0e 34 6f 3b 00 00 00 00 e2 8b 0c bb 00 00 00 00
       0.0036499533 0.0 -0.0021445681 0.0
0000d0 a7 20 b7 3b 00 00 00 00 00 00 00 00 00 00 00 00
       0.0055886093 0.0 0.0 0.0
0000e0 6e a4 22 3c 00 00 00 00 6a 05 86 3a 4c 43 c2 3a
       0.009926898 0.0 0.0010225002 0.0014821081
0000f0 e0 22 ff 3a ad 7d c5 3a 00 00 00 00 2e a8 89 bb
       0.001946535 0.0015067362 0.0 -0.004200957
000100 20 c3 ad bb c2 21 33 38 be c7 03 bb eb d7 a7 bb
       -0.0053028017 4.2708365e-05 -0.002010807 -0.005122175
000110 00 00 00 00 23 4e 32 ba 00 00 00 00 11 66 ca ba
       0.0 -0.00068018044 0.0 -0.0015441795
000120 fb 4b c6 3a 62 15 a9 bb 40 52 bb ba 00 00 00 00
       0.0015128845 -0.0051600197 -0.001429148 0.0
000130 00 00 00 00 00 00 00 00 00 00 00 00 b5 71 e0 ba
       0.0 0.0 0.0 -0.0017123731
000140 00 00 00 00 b4 ae 10 ba 35 e7 3e bb 00 00 00 00
       0.0 -0.0005519197 -0.002912951 0.0
000150 00 00 00 00 00 00 00 00 97 e3 b6 39 90 87 f6 3a
       0.0 0.0 0.00034883313 0.0018808711
000160 00 00 00 00 f3 77 bb bb 00 00 00 00 29 32 43 3b
       0.0 -0.005721086 0.0 0.0029784536
000170 11 5c b3 3a 00 00 00 00 6c 11 89 3b ba 17 87 3a
       0.0013684054 0.0 0.004182985 0.0010306754
000180 00 00 00 00 d5 28 80 bb 00 00 00 00 8f 8f 0b bb
       0.0 -0.0039111176 0.0 -0.0021295284
000190 14 79 24 bb a6 dc 37 bb 9e db 25 bb 8f 50 23 3b
       -0.0025096582 -0.00280551 -0.0025307904 0.0024919843
0001a0 45 86 0a bc 00 00 00 00 e2 f7 27 39 1e 9e cb bb
       -0.008454864 0.0 0.00016018705 -0.0062139174
0001b0 dd f3 42 bb 00 00 00 00 00 00 00 00 00 00 00 00
       -0.0029747405 0.0 0.0 0.0
0001c0 00 00 00 00 00 00 00 00 00 00 00 00 78 f2 21 bb
       0.0 0.0 0.0 -0.0024711173
0001d0 bf d3 96 3a 53 e6 49 bb 00 00 00 00 bc 34 34 3b
       0.0011507197 -0.003080745 0.0 0.0027497252
0001e0 00 00 00 00 d3 be 20 ba 32 94 ec bb 00 00 00 00
       0.0 -0.00061319506 -0.0072198147 0.0
0001f0 19 e9 c9 bb cc da 89 bb 00 00 00 00 4b 51 1c bc
       -0.0061618206 -0.004206991 0.0 -0.009540866

sequential_1/dense_1/MatMul f4 [128, 13]
000000 40 11 bb bb ec 35 32 bd 98 a1 e2 3d f1 ac d3 bd
       -0.0057088435 -0.043508455 0.11065978 -0.1033572
000010 0c d4 06 be 48 a0 20 3e d0 68 17 bd 9e d3 47 3e
       -0.13166827 0.15686142 -0.03696519 0.1951432
000020 e0 2c ee 3d b8 10 3f be c8 2d 33 3e e0 a1 82 3d
       0.11629653 -0.18658721 0.17497933 0.063785315
000030 7c ab 49 be cc 44 c2 bd 04 b0 1c be 4c 66 25 3d
       -0.19694322 -0.09485778 -0.1530152 0.04038076
000040 0e af 29 be 49 dc 4c be 4f 2f 22 be 32 01 14 be
       -0.16570684 -0.20005907 -0.1583836 -0.14453581
000050 b6 c3 f7 3d 06 35 14 be a8 73 4a be 2d ab 13 bd
       0.12097876 -0.14473352 -0.19770682 -0.036051918
000060 bd 2e 3a 3e 5f c7 0f 3e 95 6f c3 bd 9e 82 7f 3d
       0.18181892 0.14040898 -0.09542767 0.062380426
000070 2c 06 86 ba 1a d5 dd bd 83 ac 28 bd ab 84 41 bd
       -0.0010225228 -0.108316615 -0.041180145 -0.047245663
000080 36 1e 5e 3d 9b 67 39 3d 00 2a 4b 3e 6f 1c 39 3e
       0.05422803 0.04526482 0.1984024 0.18077253
000090 58 fd 8a 3c d6 0f 2b 3e ad 40 40 3d 48 05 14 be
       0.016966507 0.1670526 0.04693668 -0.1445514
0000a0 0d 97 21 3d bd 5c 46 be c9 47 23 3e 25 e8 31 3e
       0.039450694 -0.19371314 0.15945353 0.17373712
0000b0 b7 65 2c 3e a8 77 da bd 93 3f 1b be ba d1 91 3d
       0.16835676 -0.10667354 -0.1516097 0.0712008
0000c0 95 ad 3a be 48 cb 36 be c1 7a cf 3c d1 8d 0f be
       -0.18230279 -0.17850983 0.025327088 -0.14018942
0000d0 3e 62 1c be 70 46 30 be e1 15 f5 3d d7 53 7d 3d
       -0.15271851 -0.1721437 0.11967064 0.061847534
0000e0 ca 75 6f bd 0e 30 23 bc e4 7d 04 be 6b 18 e0 3d
       -0.05846194 -0.009960188 -0.12938648 0.10942157
0000f0 10 68 60 3d 68 9f fb bd 7d 93 6b 3d 5e 1d f8 bd
       0.05478674 -0.12286264 0.057513703 -0.12114976
000100 a9 4f 11 3e 75 f9 15 be e5 30 40 be 5b 0e d1 3c
       0.14190544 -0.14645942 -0.18768652 0.02551954
000110 8b ca b8 3d cd 6b 17 be ce 7f ec bd d5 b5 a1 bc
       0.09023007 -0.14787216 -0.11547814 -0.019740025
000120 0d b7 b1 bd 8b 8c e2 3d d8 ce d5 bd 7c 0d 30 bd
       -0.08677492 0.11061963 -0.10439843 -0.04298161
000130 77 58 20 be cf 55 64 3d a9 fe 0b be e5 c6 0c be
       -0.15658747 0.055745896 -0.13671364 -0.13747747
000140 9d d4 c7 bd ab 87 03 be 95 be 0b 3e 2a e4 0e 3e
       -0.0975735 -0.12844722 0.1364692 0.13954225
000150 a4 42 3b 3e 4b 2a 52 3e 8e f7 91 bd 41 8d 07 3e
       0.1828714 0.20523946 -0.071272954 0.13237478
000160 98 86 09 be ef 1c 12 be fd c2 a1 ba a4 58 e4 3d
       -0.1343025 -0.1426885 -0.0012341436 0.11149719
000170 e8 5b ef 3d b4 6b 58 be b2 7c 35 3d ad 52 15 3d
       0.116874516 -0.21134835 0.04430837 0.0364558
000180 c4 e6 08 be 47 16 ed 3d 53 6f b2 3d f0 a5 ea 3d
       -0.1336928 0.11576515 0.0871264 0.11457431
000190 6e 06 44 3e 4a 06 68 bd a4 ba 17 3e cf ae fb 3b
       0.19143078 -0.056646623 0.14817291 0.007680751
0001a0 d8 a2 db bd 71 2a 02 3e 0a 9b 92 3d d7 d1 25 3e
       -0.10724419 0.12711503 0.071584776 0.16193329
0001b0 56 1a c8 bd c7 70 d8 3d d1 8b d8 bb 30 69 20 3e
       -0.09770648 0.105683856 -0.0066084643 0.15665126
0001c0 52 f7 69 3d 67 94 e0 3d 6e 29 a0 bd 5d cf f6 bd
       0.05712063 0.109658055 -0.07820402 -0.1205127
0001d0 40 bf 2e 3c d8 8c dd 3d 22 d0 01 3e c8 f9 3c 3d
       0.010665715 0.108178794 0.12677053 0.046136647
0001e0 20 91 fa 3c e4 af 8d bd 5e 36 89 bd 7c e8 2a 3d
       0.03058678 -0.06918314 -0.06699823 0.04172562
0001f0 59 b0 e5 bd 40 4e 22 3e cc ed 17 3e b4 e2 4a 3e
       -0.11215276 0.15850163 0.14836806 0.19813043
000200 e8 13 aa 3c a5 81 34 be 20 57 15 3e 60 a9 aa 3b
       0.020761445 -0.1762758 0.14584017 0.0052081794
000210 6c 9d 25 3e 90 7a 91 3d 67 9a e5 bd 34 6e 02 bd
       0.16173333 0.07103455 -0.112110905 -0.03184338
000220 b2 03 52 3e 5c 0c 88 3d 13 bd da bd 1e ce 3a be
       0.20509222 0.06642982 -0.10680594 -0.1824269
000230 9a 92 28 be f3 49 20 be d4 ab 04 bd 14 05 34 3e
       -0.16462174 -0.1565321 -0.03239043 0.17580062
000240 a9 38 1a 3e 07 8c 02 be 6d f2 47 be 87 9a 15 be
       0.15060677 -0.12748729 -0.19526072 -0.14609729
000250 51 41 36 be 1c 7c 47 3e 4b bd e2 bd b3 7c 9b 3d
       -0.17798354 0.19480938 -0.11071261 0.07592144
000260 19 fb 1e be a2 43 01 3e 4e 88 85 bd c9 07 8d bd
       -0.15525474 0.12623456 -0.06520139 -0.068862505
000270 50 66 d7 3d 8c b9 c6 3d 14 49 74 bd d6 80 29 be
       0.105175614 0.09703359 -0.059640005 -0.16553053
000280 00 1a 1e 3c c5 23 f6 bd 00 c9 44 3d d0 a5 32 3e
       0.009649754 -0.12018541 0.04804325 0.17446065
000290 d3 c8 22 be 60 0d 82 3d 13 0e 1f be f3 35 b7 bd
       -0.15896921 0.06350207 -0.15532713 -0.08945837
0002a0 26 be b6 bd ed 45 0a be 56 63 42 3c 55 a6 00 3e
       -0.08922987 -0.13503237 0.011864504 0.1256345
0002b0 9a 3b 68 bd 0f ff 88 bc 88 e5 d6 bd c1 18 ac bb
       -0.056697465 -0.016723184 -0.10492998 -0.0052519743
0002c0 db fd 2f 3c dd 1c db 3c 14 e4 10 bd 3d a3 07 be
       0.010741676 0.026747162 -0.035373762 -0.13245864
0002d0 9f 13 4f bd 12 51 9c 3d f5 e4 da bc fe 76 08 bd
       -0.05055582 0.076326504 -0.026720503 -0.033316605
0002e0 b8 e9 19 3e 15 05 45 be 49 23 78 bd 9a 9f 36 be
       0.15030563 -0.1924022 -0.060580526 -0.1783432
0002f0 7c 68 54 be 28 f7 d9 3d 82 f6 7f 3d 8e 10 b8 3d
       -0.20742983 0.106428444 0.062490948 0.089875326
000300 8b 9c ac 3d cf a3 63 be 69 9a 34 3e 37 45 73 bd
       0.08428296 -0.22230457 0.17637028 -0.05939218
000310 8f eb 20 3d 4f c3 31 be 46 11 37 be 47 47 11 3e
       0.039287146 -0.1735966 -0.17877683 0.14187346
000320 ce 63 2e 3e 80 d1 41 be 42 74 ab bd 11 44 99 bd
       0.1703026 -0.18927574 -0.08371784 -0.07483686
000330 e6 31 bf 3c 05 7b 53 be 85 34 01 3b a2 44 dd 3d
       0.023339223 -0.20652397 0.0019715142 0.10804106
000340 05 97 da bd 3d 07 87 3d 6a db 89 3d 50 cd e2 3d
       -0.10673336 0.065931775 0.06731303 0.110743165
000350 86 04 24 be 11 5d ee 3d 1a 9f 4b 3e 71 cb 0a 3e
       -0.1601735 0.11638845 0.19884911 0.13554169
000360 33 cc 05 3e 48 49 44 be a9 b2 1a be 85 fb 00 be
       0.13066177 -0.1916858 -0.15107216 -0.12595947
000370 b7 17 15 bd 54 75 4d 3e 90 88 21 bc 10 2f 0e bd
       -0.03639957 0.20064288 -0.009859219 -0.03471285
000380 47 57 ea bd d0 2d ec bc 42 83 33 be 20 a6 c4 bd
       -0.11442428 -0.028830439 -0.1753054 -0.09601998
000390 82 1d 35 3e b8 26 c5 3d e8 1f 3d 3d d8 71 3a 3d
       0.17687038 0.09626526 0.046173006 0.045518726
0003a0 59 f1 a9 bd 74 ab b6 bd d5 0d 2f bd 32 cc 9b 3d
       -0.082979865 -0.08919421 -0.0427378 0.076073065
0003b0 9f 5f fc bc dc b9 99 3d 3e 65 c4 3d df 9a 48 be
       -0.030807314 0.07506153 0.09589623 -0.19590329
0003c0 d7 bc 44 be 13 e6 b4 bd 08 85 09 3e 89 00 30 3e
       -0.19212662 -0.08832946 0.13429654 0.17187704
0003d0 bc 45 12 3e 09 c8 b7 bc b9 28 d1 bd 10 87 a8 bd
       0.14284414 -0.022434251 -0.10212845 -0.08228886
0003e0 ff 60 d9 bd c4 e6 45 3e a4 04 10 3d bb 4c 6a bc
       -0.10614204 0.19326311 0.035160676 -0.0143005205
0003f0 3d 6f 4e bd 46 39 c0 bd 89 f4 37 be 58 e1 a0 3d
       -0.050399054 -0.09385924 -0.17964377 0.07855481
