code/model/model.tflite (tflite, 43576 bytes, 6 tensors)

arith.constant f4 [5, 64]
000000 d8 97 71 be 34 ec 83 be 74 d8 6a be 84 94 fd 3d
       -0.2359308 -0.25766146 -0.22934133 0.12381843
000010 77 a3 4e be 40 96 89 be 7e 17 59 3e 94 0f 71 3e
       -0.20179544 -0.26872444 0.21200368 0.23541099
000020 00 ef 5a 3e e0 7b 0f 3e 50 fd 82 bc 8f 89 05 be
       0.21380234 0.14012098 -0.01598993 -0.13040756
000030 63 66 3b be 8f 4e 8f 3d 5b d7 46 be a4 3e 35 3e
       -0.18300776 0.06997406 -0.19418089 0.17699677
000040 2f 97 db bd 65 e6 a4 bd 5b 20 52 bb ed 7a 77 3d
       -0.10722195 -0.08051757 -0.0032062742 0.060419966
000050 24 3c 4a 3e 17 9a a4 bd 91 f1 73 3e 8e 65 03 be
       0.19749504 -0.08037203 0.23822619 -0.12831709
000060 78 06 03 bd 27 b1 46 be 4d 62 27 be 20 28 2c bb
       -0.03198859 -0.19403516 -0.16346093 -0.0026269034
000070 df fd 90 3e f0 6a 66 be 3a e4 b4 bd f9 20 c1 bd
       0.28318688 -0.22501731 -0.08832593 -0.09430117
000080 16 9c 01 3e 72 46 61 be 0c 37 66 be 28 02 af 3d
       0.12657198 -0.21999529 -0.22481936 0.08545333
000090 1f d9 b3 b9 b6 77 f9 bd 40 d2 ac 3d 44 27 b1 3d
       -0.00034303308 -0.12181036 0.084385395 0.086500674
0000a0 40 45 72 3e 60 56 17 bd da 0a 97 3b 60 6b 07 bc
       0.2365923 -0.036947608 0.004609448 -0.008265346
0000b0 8e 97 41 be 23 34 1b 3e bb f2 cc 3d d4 23 c5 3d
       -0.1890547 0.15156607 0.10007235 0.09625974
0000c0 60 63 ce 3d 5c 09 59 3d bd 19 7d 3e fc 05 9d bd
       0.10077548 0.05298744 0.2471685 -0.07667157
0000d0 20 37 00 3e 8c 28 4b 3e 8b 4d 00 be 84 c8 5d be
       0.12521029 0.19839686 -0.1252958 -0.21658522
0000e0 36 f9 91 3d 66 1f 84 be 39 8d 8a 3e 43 a1 32 be
       0.07127611 -0.25805205 0.2706087 -0.17444329
0000f0 04 07 92 3d ec ba 60 3e 18 ea 4d be cf 45 77 3e
       0.071302444 0.21946305 -0.20108831 0.24147724
000100 5f 90 6f be 99 e5 71 be 27 50 21 be 32 ed 21 3e
       -0.23394917 -0.23622741 -0.15753232 0.15813139
000110 58 74 76 3d c6 d8 30 3e de 38 9a be f2 66 86 3e
       0.060169548 0.17270193 -0.3012151 0.26250416
000120 84 f2 d5 3d b6 f0 45 bc 00 14 91 3d 94 57 55 be
       0.10446647 -0.012081316 0.07083893 -0.2083419
000130 3c 25 7d bd 1a a0 53 be 3f 3f aa 3d 5d 81 62 be
       -0.061803088 -0.20666543 0.083128445 -0.2211966
000140 b9 3f 4a 3e 58 bd 3e 3e 30 c0 cc bb 75 b7 4b 3d
       0.19750871 0.18626916 -0.0062484965 0.049735505
000150 03 60 2f 3e 80 bd e5 3d 17 17 df bd 8c d1 d1 bd
       0.1712647 0.11217785 -0.10893076 -0.10245046
000160 7c 81 51 3e 74 aa f2 bd 4e 73 ac 3d 60 18 21 be
       0.2045955 -0.118489176 0.0842043 -0.15731955
000170 0c 28 5c bd 50 c0 3b bd e7 62 29 3d 03 4e 8c 3e
       -0.05374913 -0.0458377 0.041354086 0.27403268
000180 db 12 26 be 88 19 bf 3d ad 70 55 3c 9a 24 71 be
       -0.1621813 0.093310416 0.013027352 -0.23549119
000190 20 06 b5 3d 20 49 64 3d cc f0 44 3e e7 97 f6 bc
       0.08839059 0.0557338 0.19232482 -0.03010173
0001a0 5c 01 63 be 40 9a 1e be bb 5b 52 be f6 2a 4b be
       -0.22168487 -0.15488529 -0.20542805 -0.19840607
0001b0 74 37 fb bd 87 52 e4 bc 7d ea 10 3e b0 29 07 3d
       -0.12266436 -0.027871383 0.1415195 0.03299874
0001c0 c0 4d ba bd 49 ab 3d be e4 89 2a be 60 b0 cd bc
       -0.09096861 -0.18522371 -0.16654164 -0.025108516
0001d0 2f 56 cf bd 1d 2e 54 be 35 ab c4 bd 80 f8 57 3d
       -0.1012386 -0.20720716 -0.09602968 0.052727222
0001e0 87 c1 8c 3e ea f2 2b be 58 68 7d 3e 69 84 7b 3e
       0.274914 -0.16791883 0.24746835 0.24562229
0001f0 7a 83 70 3e 48 f2 40 3e d0 ee ed bd 00 c8 96 3d
       0.23487654 0.18842423 -0.116178155 0.07362366
000200 80 70 a8 3d af 5e c1 3c 90 30 09 be d0 39 0a be
       0.08224583 0.023604719 -0.13397431 -0.13498616
000210 04 cd 2a 3e c4 47 5a 3e 52 8d 0a be de cb 8b be
       0.1667977 0.21316439 -0.13530472 -0.27303976
000220 13 d2 11 be 5f 48 b8 3c 78 86 08 3e 30 a5 30 3d
       -0.14240293 0.022495447 0.13332546 0.043126285
000230 68 18 d7 bd 8a 72 63 3e a4 6e 1a 3e fa a8 8d 3e
       -0.10502702 0.22211662 0.15081269 0.2766798
000240 bb e1 48 be 0d d8 39 be 87 23 1e 3e 43 9e 9a 3d
       -0.1961736 -0.18148823 0.1544324 0.07549717
000250 cc 9a 9d 3d b3 d3 83 3e bc 6d 6d 3e 10 80 6a be
       0.07695541 0.2574745 0.23186392 -0.22900414
000260 3c c5 90 3d ac d9 cb 3d 17 99 78 be 94 6e 85 3e
       0.070688695 0.09953627 -0.24277149 0.26060927
000270 9c d7 85 3d f2 31 84 bd 77 15 dc 3d eb 6b 14 be
       0.06535265 -0.06454839 0.107462816 -0.14494292
000280 e3 75 9b 3d c0 36 61 bd 84 90 98 bd d4 9b 92 3d
       0.075908445 -0.054983854 -0.07449439 0.07158628
000290 cc 86 b3 3d d0 7a 23 3d de b2 1c 3e 3a 20 cc bd
       0.08765945 0.039912045 0.15302607 -0.09967084
0002a0 40 db 2e 3e c2 9a 1c 3e 7a e3 0a be 04 77 c7 3d
       0.17075825 0.1529341 -0.13563338 0.09739497
0002b0 18 2e 71 be e1 0c 11 be 0e 32 8d 3e 76 af 36 3e
       -0.2355274 -0.14165069 0.2757725 0.1784037
0002c0 3c 7b 6a be 48 4b 39 3e 38 95 92 bd 40 5b 73 bc
       -0.22898573 0.18095124 -0.071573675 -0.014853299
0002d0 40 35 1c bc 30 b6 da 3c 86 93 82 3e 2f f7 bf 3d
       -0.00953418 0.026698202 0.25503176 0.093733184
0002e0 a8 93 b4 bb c5 1e 66 bc a5 57 97 3e 4f 0d 08 be
       -0.005510766 -0.014045422 0.29559055 -0.13286327
0002f0 0d 7d 25 be f5 ba 0d be 74 21 46 3e 82 19 10 bd
       -0.16160984 -0.1384085 0.19348699 -0.035180576
000300 a1 a4 92 be 1c ec 1a 3e 74 c6 13 be 3c b1 f2 3d
       -0.28641227 0.15129131 -0.14431173 0.11850211
000310 06 99 37 3e 01 94 52 be 07 b4 95 3d 18 99 13 3e
       0.17929468 -0.20564272 0.07309728 0.1441387
000320 94 6b b0 3d bd 25 14 be 3a 1f bc bd d4 63 9c 3d
       0.08614269 -0.14467521 -0.091856435 0.07636228
000330 a0 b0 a6 bc 7a 50 c7 3d d7 62 69 3e 31 95 04 be
       -0.020347893 0.097321466 0.2279161 -0.12947537
000340 44 95 11 be ae 03 07 be f5 52 9a be 4d 21 88 be
       -0.14217097 -0.13184997 -0.30141416 -0.26587906
000350 a1 04 3e be f7 b2 34 be 71 e1 77 bd 40 bc 48 3d
       -0.18556453 -0.17646395 -0.060517732 0.049007654
000360 aa 3e fe bd d8 e5 8d be a1 b8 e0 bd bb 27 96 bd
       -0.12414296 -0.2771442 -0.10972715 -0.07331797
000370 5f ab 83 3d 46 46 fb bd 5c d6 52 3d 3d b9 15 3e
       0.06429171 -0.12269263 0.05147396 0.14621444
000380 ae d6 16 3e 6c c3 d3 3d a7 0e 7a 3e ee fd 09 be
       0.14730331 0.10340008 0.24419652 -0.13475773
000390 5e d1 b6 3d e1 56 6c be 2e 44 c0 bd 77 58 de 3d
       0.08926652 -0.23080017 -0.09388004 0.10856717
0003a0 2c c1 b5 3d 91 b9 06 be 90 42 8e 3e de 2c 9e bd
       0.08874735 -0.13156725 0.27785158 -0.077234015
0003b0 d4 e2 9a bd 34 d8 3d 3d 10 4a 31 be 88 e1 b6 3d
       -0.07562795 0.046348765 -0.17313409 0.089297354
0003c0 80 21 70 3d 2d ac 78 be 0b 1a 02 be aa 39 13 3e
       0.058625698 -0.2428443 -0.12705247 0.14377466
0003d0 8b aa e7 3d 00 7c b5 ba 5f 12 56 3e 7e 1e 87 be
       0.11311825 -0.0013846159 0.20905446 -0.2639045
0003e0 af 76 2b 3e 19 f1 e5 bd 4d 5a 9c bd 6b 2f ed 3d
       0.16744493 -0.11227626 -0.07634411 0.1158131
0003f0 9b 92 99 3d d9 73 59 bd 00 98 9a bd 1c 06 97 be
       0.07498666 -0.053088997 -0.07548523 -0.2949685

arith.constant1 f4 [64, 128]
000000 92 ee 9f 3d b5 97 1e 3e 80 cc 77 3d 10 67 d9 bc
       0.078091756 0.15487559 0.06049776 -0.026538402
000010 25 64 a0 bd c3 26 10 3e 62 15 ba 3d e3 e9 28 3e
       -0.07831601 0.14077286 0.0908611 0.1649547
000020 d0 1d e1 3c df ff 29 be 78 96 93 3c 78 af 97 bc
       0.027480036 -0.16601513 0.018016085 -0.018516287
000030 30 35 8b bd bb a9 04 3e e8 e3 f5 bd d3 71 09 3e
       -0.06797254 0.12955372 -0.1200636 0.13422327
000040 58 7c c9 bd 1a 00 fa 3d 16 c2 e1 3d 1c 88 2e be
       -0.0983817 0.122070506 0.11023347 -0.17044109
000050 ef 78 22 3e 31 cf 1e be 00 d2 e9 bb 00 7c 3e 3c
       0.15866445 -0.15508725 -0.0071356297 0.011626244
000060 61 9e 00 3e 1b 81 28 3e 10 30 69 3c f0 b1 24 bc
       0.12560417 0.164555 0.01423265 -0.010052189
000070 bf d5 8f bd 03 a3 1a 3e 66 ff 9c 3d 8a 11 57 bd
       -0.07023191 0.15101247 0.07665901 -0.05250696
000080 64 8c 0a 3d 90 01 49 bc 80 15 81 3c 8a 5d ef 3d
       0.033825293 -0.012268439 0.015757322 0.11687763
000090 56 68 34 be 93 38 81 bd b6 d2 b2 bd 0c 89 7f 3d
       -0.17617926 -0.06309619 -0.08731596 0.062386557
0000a0 2e b1 a0 3d b1 03 2c be 02 82 96 3d 05 da 27 3e
       0.07846294 -0.16798283 0.07349016 0.16391762
0000b0 5c 72 8e 3d 6d 58 ed bd 4a 4b b4 3d c0 d7 4c bd
       0.06955406 -0.115891315 0.08803423 -0.050010443
0000c0 52 5f 88 3d ea 5c 1a be 5b 14 b4 bd 40 87 f5 bd
       0.06658806 -0.15074506 -0.08792945 -0.119886875
0000d0 20 69 8c 3b f8 8f 82 3c ca 82 b2 3d b0 ac 56 bc
       0.004284993 0.01593779 0.08716352 -0.013102695
0000e0 0a cb b8 3d f8 91 a3 3c 28 02 eb 3c 6e d6 bc 3d
       0.09023102 0.019967064 0.028687552 0.09220587
0000f0 0b 32 99 bd a8 46 28 be b0 10 bc 3c 10 ab 1a be
       -0.07480248 -0.16433203 0.022957176 -0.15104318
000100 d6 10 b5 bd 66 83 8d bd 46 cb 17 be 4a b1 a4 3d
       -0.08841102 -0.06909828 -0.14823636 0.08041628
000110 25 06 d6 bd 10 ae 5e 3c 3e cc c2 bd 5a 4c da 3d
       -0.10450391 0.013591304 -0.09511612 0.10659094
000120 18 6e a9 bc 08 cd 80 bd 6c de 74 3d 88 e1 93 3c
       -0.02068238 -0.062891066 0.05978243 0.018051878
000130 18 92 d2 bc ba 61 f5 3d c6 80 1b be 75 c9 e8 bd
       -0.025704429 0.119815305 -0.15185842 -0.1136655
000140 90 96 f8 3c 2b 9f d2 bd 10 bd 1f bc 3c 9d 32 be
       0.030345231 -0.10284265 -0.009749666 -0.17442793
000150 e0 10 a1 bd 00 52 83 39 e0 9b f9 3b 97 5a ed bd
       -0.07864547 0.00025047362 0.0076174587 -0.11589544
000160 40 20 fc 3c 0c 07 0f bd 85 a4 d1 bd e4 10 55 3d
       0.030777097 -0.03491883 -0.10236458 0.05201806
000170 02 32 e0 3d 19 7d 9f bd 96 ab 9b 3d 84 3a 55 3d
       0.10947038 -0.07787532 0.07601087 0.052057758
000180 e5 1c 0f 3e f0 88 26 be 12 8a 23 be 42 93 d2 bd
       0.13975866 -0.16263175 -0.15970638 -0.102819934
000190 ea b6 30 be 4e 13 d8 3d 38 33 8d bc 99 3d 30 be
       -0.17257276 0.10550557 -0.017236337 -0.17210998
0001a0 78 be f0 3c 7b cd 17 3e 9e 7a bd 3d 04 15 d2 bd
       0.029387698 0.14824478 0.09251903 -0.10257915
0001b0 19 b8 0e 3e ce 57 d8 bd 5e f3 ef 3d ac 89 f7 bd
       0.13937415 -0.105636224 0.117163405 -0.12086806
0001c0 83 2d 80 bd c9 a4 0c 3e c5 c0 27 3e d0 04 7a bc
       -0.06258681 0.13734736 0.1638213 -0.015259936
0001d0 94 cb c6 bd f0 63 94 3d 84 0b 3c bd 69 1c f1 bd
       -0.09706798 0.07245624 -0.04590942 -0.11772997
0001e0 38 f8 db 3c f6 a1 84 3d 28 5d 64 3d 51 32 26 be
       0.026851758 0.06476204 0.055752903 -0.16230132
0001f0 b2 43 e0 3d 8c 7d 22 3d 80 b5 84 3a 4a 6f ff bd
       0.10950412 0.039670512 0.0010124892 -0.124723986
000200 27 d4 33 3e 6b 7c 26 3e d0 77 b7 bd 1a d0 b1 bd
       0.17561398 0.16258399 -0.08958399 -0.0868227
000210 d7 5c 48 3c 7b 61 1a 3e 24 9f 3d 3d f2 10 8a 3c
       0.012229166 0.15076248 0.046294346 0.016853783
000220 c1 7a c1 bd 55 88 e9 bd 6e 6a ef 3d 0a ca ef 3d
       -0.094472416 -0.114029564 0.11690222 0.11708458
000230 cf 40 f1 3d 73 20 27 be b8 36 2f 3e 36 15 a9 bd
       0.117799394 -0.16320972 0.17110717 -0.08255999
000240 f5 ef 8c bd a1 1a 1d 3e 89 34 25 be c0 d3 9c bc
       -0.06881706 0.1534219 -0.16133322 -0.019143939
000250 00 03 c7 3a 27 82 bd bd fa 47 3d bd a0 51 eb bb
       0.0015183389 -0.0925334 -0.04621122 -0.0071813613
000260 b0 34 07 3e 28 52 1c be 0b 56 cc bd 6a 7b a7 3d
       0.13203692 -0.15265715 -0.09977349 0.08177836
000270 0b 29 e3 3d 7c 84 96 3d 44 9a 6e bd ab 0b 22 be
       0.11091813 0.07349488 -0.058252588 -0.15824763
000280 e0 13 9c bc 90 43 08 bd 6c 92 6f 3d 36 1e d0 bd
       -0.019052446 -0.033267558 0.05848925 -0.10162012
000290 1d 6a 0e 3d 38 f3 ac bc c6 87 20 3d 99 d6 20 3e
       0.034769166 -0.02111207 0.039191984 0.15706863
0002a0 c2 62 b4 bd 92 3e a2 3d a2 32 00 3e 88 05 c3 bc
       -0.08807899 0.079220906 0.12519315 -0.023806348
0002b0 28 8c 19 bd 64 35 5d 3c 99 30 b2 bd f8 e6 db 3c
       -0.03748718 0.013501499 -0.087006755 0.026843533
0002c0 36 34 c2 bd 32 a0 bb 3d af 66 a1 3d 59 a0 0d 3e
       -0.09482615 0.09161414 0.078809135 0.13830699
0002d0 b5 c5 30 3e 96 d3 ec bc 60 3c 92 bd eb a8 44 3d
       0.17262919 -0.028909486 -0.07140422 0.048012655
0002e0 1a a1 11 be 77 4b f9 3d 0b 8c 98 3d 99 ed b2 3d
       -0.14221612 0.12172597 0.07448586 0.087367244
0002f0 ea 86 1f be ab d3 28 be 70 96 57 3d f6 de 28 be
       -0.1557881 -0.16486995 0.052633703 -0.16491303
000300 b4 cb 7d 3d ea 79 e2 3d 17 1d 1f 3e 24 ae cf 3d
       0.061961845 0.110584095 0.1553844 0.101406366
000310 69 b7 ec bc 22 81 0c 3d 57 a1 29 3e e6 23 a1 bd
       -0.02889605 0.03430284 0.16565453 -0.07868175
000320 7c df 32 3d 6f fb 1b 3e c6 42 d8 3d 9d 12 db bc
       0.043670163 0.15232633 0.10559611 -0.026742274
000330 52 c7 96 3d 19 8e 8d bd a6 cb 08 be 1e 48 0e be
       0.07362236 -0.069118686 -0.13358936 -0.13894698
000340 9b 84 17 3e a8 1f 99 3d 8c 99 33 3d 6d 49 12 be
       0.14796679 0.07476741 0.043847606 -0.14285822
000350 80 f6 bd 3a 9a 4d f6 3d 1a 3d 5e bd 0b 37 f5 3d
       0.0014493018 0.1202652 -0.05425749 0.11973389
000360 a1 4c aa 3d 26 cd e7 3d 9c 45 17 be ea 3b b3 bd
       0.08315397 0.11318426 -0.14772648 -0.08751662
000370 62 e3 2c 3c 18 1f 41 3d c6 59 05 be e6 94 5b bb
       0.010552259 0.047148794 -0.13022527 -0.0033505498
000380 2e bd d4 3d 2a bc 8c 3d fb 24 dd 3d 2a 1c f5 bd
       0.10387646 0.06871827 0.10798069 -0.119682625
000390 63 58 0b 3e fb 7f 30 3e d0 c1 31 bd a6 d4 92 3d
       0.13607936 0.1723632 -0.043397725 0.07169466
0003a0 d6 44 9a 3d 00 b9 ca 3b 46 47 08 3d 30 93 c8 3c
       0.07532661 0.0061866045 0.033271097 0.024484247
0003b0 a6 a5 9f 3d de 0f ce bc ed c8 c7 bd df 58 01 be
       0.07795267 -0.02515405 -0.097551204 -0.12631558
0003c0 60 61 48 3d bb 24 e2 bd d0 56 14 3c 6b b2 25 3e
       0.04892099 -0.11042162 0.009053901 0.16181342
0003d0 5c 09 0f 3e 72 a7 e8 3d cb 99 ba bd ca 9a 0f be
       0.13968414 0.11360063 -0.09111365 -0.14023891
0003e0 f2 18 2e be 97 10 28 3e 02 ee b0 3d db 1a aa bc
       -0.17001703 0.16412579 0.086391464 -0.020764759
0003f0 25 20 9a 3d 76 b6 ef 3d 5e df 28 bc a1 64 b1 bd
       0.07525662 0.117047235 -0.010307161 -0.086617716

arith.constant2 f4 [5]
000000 85 e3 15 3c 26 16 4e bc 98 fa 11 3c 92 e5 78 3a
       0.009148483 -0.012578523 0.008909844 0.0009494658
000010 ba 2a 44 bb
       -0.0029932694

sequential_1/dense_1_2/Add/ReadVariableOp f4 [64]
000000 00 00 00 00 20 92 67 3b 00 00 00 00 00 00 00 00
       0.0 0.00353349 0.0 0.0
000010 aa dc c7 bb 00 00 00 00 c1 b8 2e 3c 00 00 00 00
       -0.0060993033 0.0 0.010664166 0.0
000020 00 00 00 00 63 73 e3 3a 00 00 00 00 00 00 00 00
       0.0 0.0017353114 0.0 0.0
000030 00 00 00 00 fb b1 20 bc 41 17 ab b9 00 00 00 00
       0.0 -0.009808059 -0.00032632987 0.0
000040 bd 87 25 bc 0f 44 ac bb bc 38 9d 3a 50 c6 fe b9
       -0.010103163 -0.0052571367 0.0011995058 -0.0004859441
000050 06 e2 93 3b 4a e9 f6 39 8c 02 18 3c 00 00 00 00
       0.004513028 0.0004709459 0.009277951 0.0
000060 00 00 00 00 00 00 00 00 aa 99 46 bc 4d 1b db 3b
       0.0 0.0 -0.012121597 0.006686604
000070 e6 29 f5 3b 00 00 00 00 d4 7e c4 bb df c9 24 bc
       0.0074818013 0.0 -0.0059965644 -0.010057895
000080 b7 ef 57 3c 00 00 00 00 84 f7 01 bc 00 00 00 00
       0.013179711 0.0 -0.0079325475 0.0
000090 3d e2 29 bc 00 00 00 00 00 00 00 00 d6 03 f0 bb
       -0.010368881 0.0 0.0 -0.007324676
0000a0 00 00 00 00 00 00 00 00 8b a1 19 3b 00 00 00 00
       0.0 0.0 0.0023442234 0.0
0000b0 00 00 00 00 5b 8d 2c bb 81 bd c4 bb 00 00 00 00
       0.0 -0.0026329372 -0.006004036 0.0
0000c0 00 00 00 00 05 9a ab 3b 38 99 13 3c 00 00 00 00
       0.0 0.0052368664 0.009008698 0.0
0000d0 bc 2e c1 bb 00 00 00 00 bf ff 74 3c de 26 24 bb
       -0.0058954637 0.0 0.014953553 -0.002504758
0000e0 38 06 5f bc 17 82 49 3b f0 47 c8 3b f3 6b 26 bc
       -0.0136123225 0.0030747706 0.0061120912 -0.010157573
0000f0 bf 38 29 bc fb c1 cf bb 00 00 00 00 7f ae e9 3b
       -0.010328471 -0.006340263 0.0 0.0071313973

sequential_1/dense_1/Add/ReadVariableOp f4 [128]
000000 9a e1 a4 3b 00 00 00 00 87 e3 93 3b a4 52 df bb
       0.0050317766 0.0 0.0045132074 -0.0068152715
000010 ab e5 96 bb 00 00 00 00 00 00 00 00 2d b7 ee bb
       -0.0046050153 0.0 0.0 -0.00728502
000020 00 00 00 00 00 00 00 00 00 00 00 00 00 00 00 00
       0.0 0.0 0.0 0.0
000030 31 b7 f0 bb 14 d3 d5 bb ec 62 a5 3b 64 24 ca bb
       -0.007346057 -0.0065254066 0.005047193 -0.006168889
000040 15 d1 b4 3b 00 00 00 00 87 21 02 bc 00 00 00 00
       0.0055180886 0.0 -0.007942564 0.0
000050 00 00 00 00 89 18 31 bc 6e f6 05 bc 00 00 00 00
       0.0 -0.010809072 -0.008176429 0.0
000060 75 21 9f 3c 00 00 00 00 cf d4 0f bc 00 00 00 00
       0.019425133 0.0 -0.008778765 0.0
000070 e6 c3 d3 3b b5 82 19 bc 00 00 00 00 d3 e9 22 bb
       0.006462562 -0.009369542 0.0 -0.0024858608
000080 00 00 00 00 00 00 00 00 00 00 00 00 26 2a 9a bb
       0.0 0.0 0.0 -0.0047047315
000090 a3 8e 13 bc 00 00 00 00 08 e8 2b 3c 00 00 00 00
       -0.009006175 0.0 0.010492332 0.0
0000a0 00 00 00 00 00 00 00 00 2c 6c 3b bc 00 00 00 00
       0.0 0.0 -0.011439364 0.0
0000b0 00 00 00 00 8d 59 b7 3a 1c 3c 11 bc 00 00 00 00
       0.0 0.001398848 -0.008864429 0.0
0000c0 df fb 71 ba 00 00 00 00 c4 61 0b bc 21 b9 08 3c
       -0.0009230952 0.0 -0.008507196 0.008344919
0000d0 00 00 00 00 31 6e a8 3b 00 00 00 00 c3 8d 12 3b
       0.0 0.005140089 0.0 0.0022362329
0000e0 00 00 00 00 86 da 1c bc c4 85 12 bc 49 9c 0c 3c
       0.0 -0.009573584 -0.008943025 0.008582183
0000f0 ee b0 0e 3c 12 94 b2 3b 00 00 00 00 00 00 00 00
       0.0087091755 0.0054497803 0.0 0.0
000100 00 00 00 00 00 00 00 00 02 63 18 3c 8d 15 7a bb
       0.0 0.0 0.009300949 -0.0038159818
000110 2d 49 00 bb f5 8e fe bb 00 00 00 00 51 bb 15 3c
       -0.0019574866 -0.0077685066 0.0 0.009138898
000120 41 db 92 3c 00 00 00 00 00 00 00 00 67 42 d5 bb
       0.017926814 0.0 0.0 -0.00650816
000130 00 00 00 00 b3 9c 8e bb 00 00 00 00 00 00 00 00
       0.0 -0.004352176 0.0 0.0
000140 7e 89 d6 bb 62 c7 c4 bb 00 00 00 00 c8 0c de bb
       -0.006547152 -0.0060052136 0.0 -0.006776426
000150 00 00 00 00 12 ef cc 3b 00 00 00 00 5b dc e3 bb
       0.0 0.0062540853 0.0 -0.0069537587
000160 66 55 9a bb 00 00 00 00 a9 21 29 bc 00 00 00 00
       -0.0047098873 0.0 -0.010322967 0.0
000170 04 b1 5d bc 00 00 00 00 f8 9e 4b bb 33 19 b5 bb
       -0.013530973 0.0 -0.0031070095 -0.0055266856
000180 f1 9f b6 bb 9b 5e c7 3b 6a 34 03 3c 46 32 5b bc
       -0.0055732657 0.006084276 0.008008102 -0.013378685
000190 00 00 00 00 12 03 18 ba 00 00 00 00 00 00 00 00
       0.0 -0.00057987974 0.0 0.0
0001a0 00 00 00 00 00 00 00 00 23 3d bc 3b 00 00 00 00
       0.0 0.0 0.0057445928 0.0
0001b0 00 00 00 00 5e 14 63 bc 68 f2 15 bb 7c 11 6b 3c
       0.0 -0.013859836 -0.002288008 0.01434743
0001c0 00 00 00 00 00 00 00 00 00 00 00 00 00 00 00 00
       0.0 0.0 0.0 0.0
0001d0 08 7f b1 3b 00 00 00 00 00 00 00 00 00 00 00 00
       0.0054167546 0.0 0.0 0.0
0001e0 58 15 95 3c 73 aa 38 3c 00 00 00 00 24 9b fe bb
       0.018198654 0.011271107 0.0 -0.007769959
0001f0 bf 50 aa b9 00 00 00 00 da 2a 2f bc 15 54 ab ba
       -0.00032485087 0.0 -0.010691369 -0.0013071323

sequential_1/dense_1/MatMul f4 [128, 13]
000000 3d fa 02 be 65 cd 2d bd ea c2 4a be 3c bb f8 bd
       -0.12790771 -0.042432208 -0.19800916 -0.12145087
000010 82 23 dd 3d af a1 c9 bd d1 68 5a bc b5 8d 98 3d
       0.10797788 -0.09845292 -0.013330654 0.074489035
000020 c4 cd 63 bd d3 ce 5e bd 29 38 82 3c f4 78 8b 3b
       -0.055616155 -0.05439646 0.01589592 0.004256362
000030 2c 6b 0c 3c 74 13 08 3e f0 14 4f 3e e3 63 02 be
       0.008570474 0.13288671 0.20222831 -0.12733416
000040 81 26 17 be 98 22 da 3c 82 67 03 3e e4 18 60 bd
       -0.14760782 0.026627824 0.12832454 -0.054711238
000050 6e b1 48 3e e2 da ae bd 42 da 40 3e c6 24 ce bd
       0.19598934 -0.08537842 0.18833259 -0.10065608
000060 80 4e d6 3b 04 cf 9b 3d df 5f db bd 2b 33 10 3d
       0.0065401196 0.076078445 -0.10711645 0.035205048
000070 d7 f1 c9 3d bb 47 2a 3e 73 91 ba 3c a9 e8 08 3d
       0.098605804 0.16628926 0.022774434 0.033425007
000080 3d 44 18 3e 34 6c f6 bc 94 9e 96 3d 48 1d 30 3d
       0.14869781 -0.030080892 0.07354465 0.042996675
000090 49 50 16 3e 7f 15 15 3e 6f dd 2c 3d c5 ad 07 be
       0.14679064 0.14558981 0.042203363 -0.13249882
0000a0 b7 84 a9 bd 14 49 59 3e a7 f5 c6 bd a8 c6 4a be
       -0.082772665 0.21219283 -0.09714823 -0.19802344
0000b0 fa 3b 51 bd 82 21 32 3e 67 d6 12 be 24 c2 3b 3e
       -0.05108259 0.17395595 -0.143396 0.18335778
0000c0 38 f9 5f be 5e a4 bc bb 48 55 5f be eb 4e 52 3d
       -0.21872413 -0.005756899 -0.21809876 0.051344793
0000d0 d2 c3 11 3d cd 13 88 3d cf 6b 28 be 7a cf 53 3e
       0.03558714 0.06644402 -0.16447376 0.20684615
0000e0 ea 7b 05 be bc b4 49 be 30 80 13 3e 74 ed 23 bd
       -0.1303555 -0.19697851 0.14404368 -0.040021375
0000f0 9c 85 d1 3d d3 18 31 3e 90 d7 2d 3d 0d a3 ec bd
       0.10230562 0.17294626 0.042441905 -0.11554537
000100 5d b9 8c bb c0 3b b5 3d d1 94 c8 bd a0 d8 15 bd
       -0.004294558 0.08849287 -0.097940095 -0.036583543
000110 24 e8 6f bd a0 90 19 bd 78 70 9d 3d 28 6b 89 3d
       -0.058570996 -0.03749144 0.07687467 0.067098916
000120 32 9d 41 be dc c7 1f be 00 49 c5 ba 57 1b 35 be
       -0.18907622 -0.15603584 -0.0015051663 -0.1768621
000130 a8 7a 9c 3c 28 d4 01 be 6c 59 3c 3e 60 50 61 3d
       0.019101456 -0.12678587 0.18393487 0.055008292
000140 ce f6 87 bd c2 45 ca bd 22 38 94 bd 10 5a fc 3d
       -0.06638871 -0.098765865 -0.07237269 0.123218656
000150 74 25 85 3d 50 06 ff bd e9 17 b5 bd 57 87 4d be
       0.06501284 -0.12452376 -0.08842451 -0.2007116
000160 9c df 1e be e0 ae 4d 3d 28 76 c9 3c a9 e6 0c be
       -0.15514988 0.050215602 0.024592474 -0.13759865
000170 62 8b 02 be e1 09 b5 3d 33 7f 50 be 73 89 08 3e
       -0.12748483 0.08839775 -0.20361023 0.13333683
000180 ee 7f 50 3d 37 38 3d 3e b2 52 bf 3c 62 36 c4 bd
       0.050903253 0.18478476 0.023354862 -0.09580685
000190 89 48 32 3e 4d bc 09 3e 1a de d7 bd 15 f5 14 3e
       0.17410482 0.13450737 -0.105404094 0.14546616
0001a0 b8 ef 2e 3e 7a 5a 37 3e 08 75 b0 3d 42 1b 04 3e
       0.17083633 0.17905608 0.08616072 0.12901023
0001b0 88 fb 2a 3e 20 f9 16 3e 38 74 59 3d 14 d7 b9 3d
       0.16697514 0.14743471 0.05308935 0.09074226
0001c0 38 93 3d 3d 48 8c 02 be ec 2d 37 bd c0 a6 40 be
       0.046282977 -0.12748826 -0.04472153 -0.1881361
0001d0 98 49 5b 3d 5c e5 38 bd 52 55 29 be e8 3e f6 3c
       0.05353698 -0.04514061 -0.16536453 0.030059293
0001e0 28 d3 a4 3d 49 f1 c8 bd 10 00 ad 3d 75 a4 a8 bd
       0.08048087 -0.098116465 0.084472775 -0.08234493
0001f0 90 c3 27 bc c0 00 4b 3b 84 e8 60 bd b0 5f 2a bc
       -0.010239497 0.0030975789 -0.054909244 -0.01039879
000200 b8 34 eb 3c 32 2e b1 bd 6c d5 d6 3d 40 02 5e bd
       0.028711662 -0.08651389 0.10489926 -0.054201365
000210 8c 72 df bd 33 0d d1 bd 8f 0c 45 be c2 3a 43 3e
       -0.1091052 -0.10207596 -0.19243072 0.19065383
000220 fe 9b 30 3e 2e 5d 0e be f6 7d 4e 3e ac 43 3c be
       0.17247006 -0.13902733 0.20165238 -0.1838519
000230 68 8d 0a be b9 ef 49 be 47 b3 d7 bd 48 2c 92 3c
       -0.13530505 -0.19720353 -0.10532241 0.01784338
000240 50 fa 27 be 20 69 9b bc 2b 3b ae bd c4 4f d8 3d
       -0.1640408 -0.018971026 -0.08507379 0.10562089
000250 72 b7 36 be f8 88 7d bd 18 97 22 be 48 c1 ae 3d
       -0.17843416 -0.0618982 -0.1587795 0.08532959
000260 51 a6 32 be 0f 55 2d be e9 80 b6 bd c2 0f 05 3e
       -0.17446257 -0.16926979 -0.089113064 0.12994292
000270 77 f5 5e 3d 01 fc e2 3d 83 9f f8 3d 98 92 21 3c
       0.054433312 0.11083222 0.121397994 0.009861611
000280 a9 1a 26 be 18 38 28 3e 40 e4 b8 bd d0 ff 3a be
       -0.16221108 0.16427648 -0.0902791 -0.18261647
000290 94 bc 0d be 93 2b 51 be 20 7f 43 bd 0d d6 92 3d
       -0.13841468 -0.20426778 -0.047728658 0.07169733
0002a0 8c a8 f8 bd e1 0a d7 bc 33 61 83 bd b5 9a 55 bd
       -0.12141523 -0.026250305 -0.06415024 -0.052149493
0002b0 52 3e 65 bc 56 ed 61 3d 58 99 f0 bd 0e 51 5e 3e
       -0.013991909 0.05515798 -0.11747998 0.21710607
0002c0 f9 fb 2f be a5 71 62 3d e5 35 c8 bd 90 7a 20 bd
       -0.17185964 0.05528416 -0.097759046 -0.039179385
0002d0 df 29 f0 3d 5b ed 4f 3e 34 67 13 be 0e 8a 08 3e
       0.11726736 0.20305388 -0.14394838 0.13333914
0002e0 67 77 36 be 7b 34 db 3d aa 9b d5 3d 45 9f 20 3e
       -0.17818986 0.10703369 0.10430081 0.15685757
0002f0 00 79 6f 3d f5 d3 e9 bd 83 63 e7 bc b9 ff c6 bd
       0.058465004 -0.11417381 -0.028245693 -0.09716744
000300 56 51 fe bd ac 5b 23 3d 5f ee d1 3d 17 30 d4 3b
       -0.12417857 0.039882347 0.10250544 0.0064754593
000310 48 96 de 3c a6 85 d3 3d c2 ab 16 be ac 76 d2 bc
       0.027171269 0.10328226 -0.14713958 -0.025691353
000320 e7 3e 0b 3e 30 36 61 3d 54 14 45 3e b4 7c 08 be
       0.13598214 0.054983318 0.19246036 -0.1332882
000330 46 e5 48 3e cc 02 5f 3d d9 a0 6e bd 90 05 c9 3d
       0.19618711 0.054446027 -0.058258865 0.09815514
000340 9d 5c 73 3c 4f 12 be 3d a2 57 10 be d2 c3 4b 3e
       0.014853624 0.09280836 -0.1409593 0.19898918
000350 13 d5 0c bd 61 3e e7 3d 1a 84 5c 3e 7b f6 fb 3d
       -0.03438289 0.11291195 0.21534768 0.12302872
000360 1c da a8 bc 05 a0 4b 3d 2f d1 e4 3d 3f 4e 83 bd
       -0.020611815 0.049713153 0.11172711 -0.06411409
000370 8f e7 33 3d c0 fe 9f 3d 66 bb 43 be 9e c8 8a bd
       0.043922003 0.078122616 -0.19114456 -0.06776546
000380 fb 54 d8 bd 96 c2 52 3e 00 8c ca b9 e0 d0 09 be
       -0.10563084 0.20582041 -0.0003863275 -0.13458586
000390 18 a0 6c bd 00 e2 a0 3a 7c 1b 1e be 24 15 14 be
       -0.057769865 0.0012274384 -0.15440172 -0.1446119
0003a0 ef 02 e9 bd c4 bb 91 3d 02 3c 47 bd 81 59 4a 3e
       -0.11377513 0.071158916 -0.048641212 0.19760706
0003b0 a0 2d bc 3d af 61 66 3d fa a3 07 be 56 59 cd 3d
       0.0918839 0.056245502 -0.13246146 0.10026805
0003c0 bb 10 11 3e 7a 59 82 3d 1e a9 48 3e 93 67 d7 bd
       0.14166538 0.063647225 0.19595763 -0.10517802
0003d0 16 cf 64 3d 0f f2 d1 3d b0 6e ea 3d 7c af 56 bd
       0.055861555 0.10251247 0.11446893 -0.05241345
0003e0 fc 93 30 be 98 49 d1 3d 1a 4d 11 3e 48 5f 03 be
       -0.17243952 0.10219115 0.14189568 -0.12829316
0003f0 da e3 2a 3e ae fe d2 bd 0d a2 26 be b8 7e 73 3d
       0.16688481 -0.103024825 -0.16272755 0.05944702
